ppo_handover_model.pth (torch, 608645 bytes, 11 tensors)

fc1.weight f4 [256, 15]
00000000: 8059 e83d 9cac 203e 1858 203e 10d1 56be
00000010: 4689 593e 4e30 5abe c035 d53b 46ac 4d3e
00000020: f4f7 83be b4b9 76bd 7892 1bbd 16e6 4e3e
00000030: b838 423d 7880 45bd 7fb6 08be 2c44 38be
00000040: 7a7a 6bbe 8ebc 263e 324c 493e 4043 813b
00000050: f232 683e 4217 7fbe 24d9 3cbe 6a73 183e
00000060: 2e61 3bbe 109c 8c3c 729a 0bbe 5279 66be
00000070: 86a1 17be d9bd 2bbe 8491 b43d 7a80 e4bd
00000080: 9a54 5abe 56d6 7a3e a705 7bbe c244 513e
00000090: a0e1 cc3d 5c61 683e 9478 c33d 6435 573e
000000a0: 5814 4b3d 6200 643e f89e 693e 402b 67bd
000000b0: e9e0 7bbe a672 7f3e 98ce 14be c4d8 b13d
000000c0: 8114 7ebe f5c4 29be e4d4 953d 8b11 50be
000000d0: 0223 423e 5ac3 acbd 2a38 80bd 8e92 90bd
000000e0: b8f4 b8bc 7824 483e 6092 6e3e c0aa 6b3d
000000f0: 08a6 673d 9c93 3b3e 6eef 02be dafe 42be
00000100: 40d8 4cbe ecc0 ca3d 80ca 7b3d e212 4b3e
00000110: e08d 713e ae32 20be 0e93 75be 501d e9bd
00000120: 128c 3a3e 8c22 45be 6095 963c 0215 c7bd
00000130: 66fb 2abe 8514 48be e513 19be 62b3 0b3e
00000140: a046 ee3c a878 f13d c6b6 50be 80ce 3c3e
00000150: b06e 3cbe 4209 233e 5d3a 80be 0010 8a38
00000160: c8f2 6fbd 1456 71be eaf5 423e 9685 10be
00000170: 0c39 18be 407c 663e 40ab 5bbe be09 783e
00000180: e063 4dbc 283e ef3d 50e4 253e 4608 50be
00000190: bc5e 90bd 648f 283e 2c7a 7fbd 7cf4 e4bd
000001a0: e048 d63c d4c1 973d c6cd 613e c229 d3bd
000001b0: 30b5 db3d dcfe 9a3d 29d7 80be c8ce 00bd
000001c0: 207b c03c 49ef 48be 9ce1 aa3d b0a5 533d
000001d0: 3a08 29be 9636 10be 86fb 783e 0055 3b3b
000001e0: acae aabd 4919 5bbe 50c4 05be 1c19 a73d
000001f0: 867d 793e f3c9 00be c83e 203d cd9f 31be
00000200: 8ea1 9fbd 44b2 d43d 489b 173d 2026 953d
00000210: 40fa cb3b 108c f43c 7a63 113e b11c 51be
00000220: 7402 9abd f0d0 5d3d 6e96 303e a86b 39be
00000230: 1f57 58be d62d 503e 2443 45be 8ce2 70bd
00000240: 08c7 0ebe 0055 003e d862 1e3d 9895 5a3d
00000250: faad 763e 0ece 603e 3467 343e b017 8abd
00000260: 00a0 0c3b de03 123e aa56 e1bd cc48 86bd
00000270: b247 92bd 7284 003e 8421 a4bd 9cdd cabd
00000280: 1859 933d 12bd d4bd b0ee 78be 3864 423e
00000290: 407f 463d a0ca 0d3e ee45 e0bd 7029 04be
000002a0: 70a8 c2bd 8a2e 233e 6cef e4bd e649 e4bd
000002b0: 20e2 153e e084 ff3d 8085 3bbb 6420 9bbd
000002c0: 1d42 833e b4d5 79bd 80b3 34bd b014 743d
000002d0: 2c39 743e 6096 5a3d 48e2 383d b0d3 b13d
000002e0: b0da f1bc a05c 6b3e 6c77 403e 0877 12be
000002f0: dc2d b93d 3ed7 4b3e d846 183d 146e 73bd
00000300: 4247 e2bd d6bc fdbd 5a8b 2c3e 8751 1ebe
00000310: c0c0 533d 88c6 ea3d 02fb 74be ee93 acbd
00000320: 3aba 24be a10c 82be 84f8 68be c515 2fbe
00000330: 7a03 d1bd f528 4abe 14ba e13d e06b 463d
00000340: a0be 163e 6c6b ddbd e21f e6bd d661 093e
00000350: 959b 82be bed4 163e 70c7 6a3d d85c b83d
00000360: ba8d 483e 0aa6 39be d420 f03d c065 36bd
00000370: 7c13 6cbe 251e 14be 80cd b73b c9a2 3ebe
00000380: e09e b03d 2837 1a3e b04c 6fbd 00ea 20ba
00000390: a040 023d 137c 823e 290e 29be 0cfc 23bd
000003a0: a80e 4b3e f4a1 42be 0a51 04be 4a55 56be
000003b0: 78a1 7bbe 90d3 5d3e ccae 1f3e 1559 13be
000003c0: 1a6e a0bd 7a04 143e b0e5 0e3d 3e89 1c3e
000003d0: 2efd 413e d087 35be e6dd 613e fce8 89bd
000003e0: 007d a83a 0033 873c 3034 e43d fac8 a9bd
000003f0: 80ca 663c def8 bcbd 0022 a23a e02c e53c
0.11345196 0.15690845 0.15658605 -0.20978189 0.21243772 -0.2130749 0.0065066516 0.20085248
-0.2577511 -0.060235694 -0.03798148 0.20204958 0.047417372 -0.04821822 -0.13350867 -0.17994756
-0.2299594 0.16282865 0.19657972 0.0039447844 0.22675684 -0.24911216 -0.18442208 0.14887777
-0.1829879 0.01716426 -0.13633135 -0.22507218 -0.1480771 -0.1677164 0.088168174 -0.111573175
-0.21321335 0.24495825 -0.24513875 0.20436385 0.10003972 0.2269339 0.09544483 0.2101646
0.04957995 0.22265771 0.22814548 -0.05643773 -0.24597515 0.24946079 -0.14531934 0.08683923
-0.24812509 -0.1657904 0.07315996 -0.20319192 0.18958667 -0.08435698 -0.062607124 -0.07059203
-0.022577628 0.19545162 0.23298025 0.057535887 0.056554824 0.18318027 -0.12786648 -0.1904253
-0.20004368 0.09900078 0.061472416 0.19831422 0.23589277 -0.15644333 -0.23981878 -0.11382544
0.18217495 -0.1925146 0.018381774 -0.09720804 -0.16697463 -0.19539078 -0.14948995 0.13642648
0.029086411 0.117905915 -0.20382223 0.18438148 -0.18401599 0.159215 -0.25044528 6.583333e-05
-0.058581144 -0.23567992 0.19039121 -0.14113459 -0.14865512 0.22508335 -0.21452045 0.24222466
-0.012536019 0.11681777 0.16200376 -0.20315656 -0.07049319 0.16460949 -0.06237237 -0.11179444
0.026157796 0.07410017 0.22051153 -0.10310699 0.10727918 0.07568142 -0.25164154 -0.031447202
0.02349621 -0.1962253 0.08343813 0.051671684 -0.16507044 -0.14083323 0.24314699 0.00285846
-0.08334097 -0.21396364 -0.13063169 0.08159086 0.2436429 -0.12577038 0.039122373 -0.17346115
-0.07794486 0.10385564 0.037013322 0.072826624 0.0062249005 0.029851943 0.14198104 -0.20421101
-0.07519999 0.054154336 0.17244884 -0.18107474 -0.21126984 0.20329985 -0.19263893 -0.058809802
-0.13943112 0.12532425 0.038668483 0.05336532 0.24089804 0.21953604 0.17617494 -0.06742799
0.0021457672 0.14259288 -0.11002858 -0.06556854 -0.07142581 0.12550524 -0.08014205 -0.0990555
0.07194728 -0.10387625 -0.24309802 0.18983543 0.0484612 0.13846827 -0.10950838 -0.12906432
-0.09504783 0.15935722 -0.111784786 -0.111469075 0.14637041 0.12476516 -0.0028613508 -0.075745374
0.25636378 -0.06099482 -0.044116497 0.05959004 0.23849934 0.053366065 0.045137674 0.08682954
-0.029523224 0.22984552 0.18795556 -0.1430322 0.0904195 0.19906327 0.037176937 -0.05943115
-0.110487476 -0.12389533 0.16850033 -0.15460788 0.051697493 0.11463648 -0.23923877 -0.08426653
-0.16086665 -0.2540026 -0.22751051 -0.17098148 -0.10205741 -0.19742186 0.1102182 0.04844272
0.14721155 -0.10811505 -0.1123655 0.13416228 -0.25509325 0.14729592 0.057319105 0.090020835
0.19585314 -0.18129745 0.117250115 -0.04453063 -0.23054308 -0.14464624 0.0056092143 -0.18616785
0.08624053 0.15060103 -0.058422744 -0.00061383843 0.031799912 0.25485286 -0.16509308 -0.040035293
0.1982981 -0.19007093 -0.12921539 -0.20930973 -0.24573314 0.21662736 0.15594023 -0.14389451
-0.078335 0.14454833 0.034887016 0.15286729 0.18944237 -0.1772759 0.22057304 -0.06733891
0.0012854636 0.01650381 0.111427665 -0.08290286 0.014086366 -0.09227155 0.0012369752 0.0279755

fc1.bias f4 [256]
00000000: c057 18bd f2d5 6f3e 3cfc 253e c7d7 0fbe
00000010: 1805 1b3e 6920 00be 402f 31bd c0d3 48bd
00000020: 8ca8 f33d 3090 d03d 4507 01be 0fc4 803e
00000030: 0667 5e3e 64b6 b33d 6c0a e13d 10c5 3c3d
00000040: 70ad ca3c 8d83 76be 0bb7 77be 1afb 3c3e
00000050: 80da 763d 886a 6e3e 60f5 66be f4a1 d23d
00000060: e8d6 d73d 32bf 8abd de94 e2bd e455 ea3d
00000070: 2e72 7e3e 429d 363e fe7b 543e a218 3b3e
00000080: fcb3 063e 3c0c 2dbe cc44 4a3e d8c2 5f3d
00000090: 1c9f 9e3d 58bc c13d 3452 8f3d 7d3e 833e
000000a0: 9003 e93d 6095 d7bc 80c1 02bc a27b 103e
000000b0: a04e 203e 9a1b b2bd e584 5abe 887b 523e
000000c0: 88d4 0ebe e84f a7bc 3887 36bd 3485 253e
000000d0: c822 5ebd ac78 cabd 1004 cc3c aaf0 2ebe
000000e0: a046 c6bd c866 4abe 30d3 a0bd f0b8 763d
000000f0: a4a4 9c3d fc39 18be e04e 0abd 5c4a 49be
00000100: 3cbb 313e 444e 9a3d cdbe 29be d092 cdbc
00000110: 40b1 b13d 98af 733d 261f f6bd d043 71be
00000120: ef9f 11be e079 bf3d de5b 243e 3a5f 9ebd
00000130: 9068 29be d432 a13d 9098 76bd 8073 d23d
00000140: 907d 0fbc 96b6 3cbe 646e 34be f8bb 40bd
00000150: b403 27bd 0425 e03d d020 a63d 2cd8 91bd
00000160: 325a a7bd d26e 29be 2cff 083e ac3b 7ebd
00000170: 0e29 d0bd 30f8 4d3e 20c4 7dbc 72ae b0bd
00000180: 80f0 cf3b a833 9abd 687b 58be 9e9f 653e
00000190: 0031 db3c 58e2 09bd 5eb5 783e 4017 243d
000001a0: c668 07be 1afe a6bd cc9d e8bd e8d4 583d
000001b0: c98a 45be e549 7ebe 98fa 3cbe aa4c 353e
000001c0: 0ad1 6b3e d2b3 7c3e bc19 32be 7ae8 1ebe
000001d0: 0139 1fbe e6be f5bd 6275 2e3e ac04 37bd
000001e0: 89b8 5ebe 50a5 f13c 408b e43d 2069 783d
000001f0: b442 fbbd aa89 593e 464f 723e d042 813d
00000200: 6418 3ebe 726f 453e 4612 1dbe 56b9 493e
00000210: 640c cbbd c08e 2cbe 3092 c1bc 1085 2bbe
00000220: 08f6 fabd 4ed1 0fbe a86b 363e 60a3 473e
00000230: e400 20bd 901b a83d 4a43 643e b400 edbd
00000240: 0ef9 85bd 00c5 a4bd fd91 6dbe e271 80bd
00000250: 9003 1cbd b8e6 4abe e514 4fbe c0ea bd3b
00000260: 38c9 6f3d 1475 27bd e055 92bc 6087 993d
00000270: 802a a83d 0053 513c 7086 6e3e cc12 c93d
00000280: b087 2ebe 4676 80bd 20b4 5c3e 9218 a4bd
00000290: 6c69 6abe 64cb c63d f33c 55be 4c8a 173e
000002a0: a0a1 683d decd d1bd 3c92 38be 5074 2e3e
000002b0: 0844 493d 30ed f63d 8092 223d 7e2d 6fbe
000002c0: b8b0 013e 00ae 85bc 466e 403e 9689 92bd
000002d0: 1f2b 0bbe b9ad 58be 6ee2 403e f8ab d43d
000002e0: b8a1 83be 6e72 0b3e 4864 fcbc d413 85bd
000002f0: 1ca1 ea3d 466a 40be 1aa0 3f3e 7031 3ebc
00000300: 3626 92bd 70b1 493e dc3e 83bd dc2a 48be
00000310: dede 763e 403e eebb a096 323e 929a d2bd
00000320: f084 c13d ea2c 2abe 479a 7fbe eaca 5d3e
00000330: 96db 2f3e 287c 423e 860d 1a3e 3a53 68be
00000340: f2e0 c1bd 2a51 cbbd a8a1 4e3e 0068 b4bb
00000350: 3dcc 5abe 39ea 30be 46c2 81be 8282 263e
00000360: 4e15 033e aa9e 40be 9fde 53be fc3f 3b3e
00000370: 00e6 f2ba 6451 6b3e 86fd 23be 80c4 1a3b
00000380: a4c3 1f3e 7d8f 03be 7787 42be 20e4 d9bc
00000390: ab18 75be fce7 9f3d e66a 443e f4a1 0f3e
000003a0: a086 ad3d 3243 3a3e 889e 1a3d 8045 45bc
000003b0: 5405 29bd feb0 bbbd d283 5c3e 2264 663e
000003c0: 04df 86bd f5f3 81be f8f4 223e d099 813c
000003d0: 284c c2bc 7a10 353e 7775 5dbe ec0e 753e
000003e0: aa0d 30be cc5f 0ebe 5012 26bd 8e29 2d3e
000003f0: ea2b 17be c104 39be 68dd f73d 20e8 1d3e
-0.03719306 0.23421457 0.16209501 -0.14047156 0.15138662 -0.12512363 -0.04325795 -0.049030066
0.11897382 0.101837516 -0.1260043 0.2514958 0.21718988 0.087750226 0.10988316 0.04608637
0.024740905 -0.2407362 -0.24190919 0.18455163 0.06026697 0.23282826 -0.2255454 0.10284796
0.10539037 -0.06774749 -0.110635504 0.114421636 0.24848244 0.17833427 0.20750424 0.18271115
0.13154596 -0.16899198 0.19752806 0.054629177 0.077451915 0.09459752 0.06998101 0.25633612
0.113776326 -0.026316345 -0.007980704 0.14109662 0.15654993 -0.08696671 -0.21339758 0.20554936
-0.13948262 -0.020423844 -0.04456255 0.16164094 -0.05423239 -0.098862976 0.02490428 -0.17083994
-0.096814394 -0.1976577 -0.07852781 0.060234964 0.0764859 -0.1486587 -0.033766627 -0.19657272
0.1735658 0.07534459 -0.16576691 -0.02509442 0.08676386 0.05949363 -0.1201766 -0.23561025
-0.14221166 0.09349418 0.1605067 -0.07733007 -0.16543794 0.07871023 -0.06020409 0.10275936
-0.008757964 -0.18429026 -0.17620236 -0.04705426 -0.040775016 0.1094456 0.08111727 -0.0712131
-0.081715 -0.16546181 0.1337859 -0.062068626 -0.101640806 0.20114207 -0.015488654 -0.08627023
0.0063458085 -0.07529384 -0.21140826 0.2242417 0.026756763 -0.033663124 0.24287936 0.040061235
-0.13223562 -0.08153935 -0.11358222 0.05293742 -0.19291224 -0.24832876 -0.18454969 0.17705026
0.23028961 0.24677971 -0.1739263 -0.1551837 -0.15549089 -0.119993016 0.17036965 -0.04468219
-0.21750082 0.029497772 0.11159372 0.06064713 -0.12268582 0.21243921 0.23663053 0.063115716
-0.18563992 0.19280794 -0.15339002 0.19699606 -0.09914473 -0.1685133 -0.023629278 -0.16749978
-0.12253958 -0.14044687 0.17814505 0.19495916 -0.03906335 0.08208382 0.22291294 -0.115724
-0.06541644 -0.08045387 -0.23200221 -0.062717214 -0.038089335 -0.19814575 -0.20222814 0.0057958066
0.058541507 -0.04088314 -0.017863214 0.07496524 0.08211231 0.012776136 0.23293471 0.09818038
-0.17043948 -0.06272559 0.21553087 -0.08012499 -0.22891778 0.097067624 -0.20824032 0.1479885
0.056794763 -0.10244344 -0.18024534 0.17036557 0.049137145 0.12056959 0.039690495 -0.23357198
0.12665069 -0.016318321 0.18792066 -0.07155149 -0.13590668 -0.2116002 0.18836376 0.10384363
-0.2570932 0.1361787 -0.030809537 -0.064979225 0.114565104 -0.1879054 0.18713418 -0.0116084665
-0.071361944 0.19696593 -0.06408474 -0.195476 0.24108455 -0.0072706044 0.17440271 -0.10283388
0.09449184 -0.16618696 -0.24961196 0.21659437 0.17173609 0.18992674 0.15044221 -0.22687998
-0.09466733 -0.0992759 0.20178854 -0.005505562 -0.21366973 -0.17276849 -0.2534353 0.16260722
0.12801096 -0.18810526 -0.20690392 0.18286127 -0.001853168 0.22980267 -0.1601468 0.0023615658
0.15601975 -0.12847705 -0.18996988 -0.026598036 -0.23935191 0.078079194 0.19181404 0.14026624
0.08472943 0.18189695 0.037748843 -0.012040496 -0.041264847 -0.09164618 0.2153466 0.22499135
-0.065855056 -0.25381437 0.1591376 0.015820414 -0.023717955 0.17682067 -0.2162684 0.23931473
-0.17192712 -0.13903731 -0.040544808 0.16910383 -0.14762846 -0.1806822 0.12102777 0.1542058

fc2.weight f4 [256, 256]
00000000: 6c22 b83c 7632 293d 0e20 553d 484a db3c
00000010: 1c70 51bd b0c6 d3bb 34af 773d 480e a2bc
00000020: 4ab5 2a3d 148d d5bc 90b3 5dbd c67a 3b3d
00000030: 5e5e 793d c8df ec3c bcee 0b3d 10a1 94bc
00000040: 3258 4dbd dc7e b83c 9e91 4c3d 6428 6abd
00000050: 08e4 bebc 8cdc 25bd 7031 fbbc 3886 79bc
00000060: 2c42 09bd 0ae6 7fbd c017 25bc b6bf 453d
00000070: f2a4 48bd 3843 b43c c2e0 343d 58f0 2e3c
00000080: 40f6 70bc 7087 643c 7cd0 7dbd fe5a 16bd
00000090: d0a3 2f3d 7288 33bd 7a1a 53bd 80dd a5bb
000000a0: 5877 f63c 086e 353c be85 60bd 2007 58bb
000000b0: 88ea fa3c 84ad 12bd 6c8e 74bd 24df 58bd
000000c0: 882d e3bc f81b 013d 10ad 6a3d a0fd c13b
000000d0: 3c2d 9d3c a0cf 6f3b 509b 3cbd e06e 32bc
000000e0: 089d 303d 5cf5 6f3d 9e86 2bbd bcb5 5bbd
000000f0: 46ad 2bbd 0882 493c d42e 323d fc3f e2bc
00000100: 10ae a9bb c8bf 553c 7896 92bc f0e9 3c3d
00000110: 744e 6fbd d0a5 1dbc 1ae6 493d e052 873c
00000120: b031 e13c 5082 bcbb 988d 27bc 9a8b 00bd
00000130: 2eec 0c3d e600 35bd bef7 04bd 5802 ebbc
00000140: 0084 de3c a4d2 6abd 0ca7 693d 6005 5cbd
00000150: 28ab 603c 407f dfbb 5090 423d 8897 613d
00000160: d6d6 1f3d 4cd0 143d 32a6 3c3d f2f5 163d
00000170: 64ad dc3c 409d 1ebd 6cec 803c a8de 19bd
00000180: 4006 98bc 90a2 3dbd 2087 99bb 1806 333c
00000190: 28b0 6abc 4425 bb3c a434 cbbc 6895 84bc
000001a0: 909e b6bb dc4c 6a3d 7ce1 5c3d bcf1 f2bc
000001b0: 9036 2dbc c87e 7f3d 0432 d8bc 6cb2 2cbd
000001c0: e8c3 aa3c cacd 74bd 96ae 5bbd 389e f9bc
000001d0: 301f babb f8bd 0d3d ac09 87bc d09d 5dbd
000001e0: 14ab 713d c04a dc3a f849 483c bc35 383d
000001f0: 4a07 1dbd 46c9 5c3d f084 41bc 7851 d73c
00000200: 7869 e03c 0cd3 d9bc ba7a 7b3d 60d7 c5bc
00000210: 28dc 523d 9cb8 dd3c 1cfe 20bd a0af c0bc
00000220: 10e0 2dbc 54f8 673d e002 0a3d ba07 5cbd
00000230: d8c6 8c3c 0470 61bd ec66 53bd 1414 69bd
00000240: a236 4abd 909b 95bc 6a85 6e3d 08fb 133c
00000250: c830 32bc fe75 7ebd 0825 67bd 641e afbc
00000260: 08dd b83c 062b 16bd 68db 7f3c 3c2f b9bc
00000270: 8c69 d03c 009a 0b3c 3845 303d a487 763d
00000280: bcec 14bd 58ad 413c 0c6c 353d b0ff a7bc
00000290: 3043 febc 346b 1abd 0cef 9abc bc22 203d
000002a0: a0cd 473b 6a48 58bd 4608 4bbd a02a 97bc
000002b0: 9094 ba3b 98d8 213d b88b ef3c e042 ce3c
000002c0: 7810 ea3c d6a6 143d aae8 173d 209e c63c
000002d0: e8ff 013c f846 7f3c a8c5 5d3c 8cbe 53bd
000002e0: e489 d9bc 20d2 df3b c839 5abc 703b f53c
000002f0: 88a7 8f3c 3e91 4d3d a6dd 43bd b224 6fbd
00000300: d8f9 58bd 9cc7 60bd 6afb 733d 4817 5f3c
00000310: 30ad 973c e841 3f3d c29e 0f3d 4acc 623d
00000320: e845 7dbc f87d e93c 6ede 05bd e0fd 113c
00000330: e052 653d d028 f1bb 6605 623d 94be a23c
00000340: 0869 83bc ce8e 453d d09b 8fbb 901c 49bd
00000350: e621 703d a2de 2fbd 60dd 773c c009 68bd
00000360: 0c95 fcbc 2cd0 dabc 5e89 7c3d 9c7d 7dbd
00000370: 542a eebc 3a41 09bd 68d4 93bc 3e3f 183d
00000380: 5822 1bbd 002b cd39 6463 9c3c c66f 54bd
00000390: 146f dcbc ace3 c83c f890 02bd 1c01 8b3c
000003a0: d8f4 2dbd a08e 3d3b f059 99bb f096 11bc
000003b0: f852 6cbc ce7c 3c3d 8270 413d 9098 11bd
000003c0: a8b6 c2bc 1414 d73c fea6 4f3d 24b1 a4bc
000003d0: 0084 2539 b011 0e3c 94ce 54bd 20a2 8fbc
000003e0: c027 a0bb 0066 f6ba da1c 223d 40ee cabb
000003f0: 988b 31bc 3044 e93b fc21 923c ec09 403d
0.022477351 0.04130789 0.052032523 0.026768818 -0.051132306 -0.0064628944 0.06046982 -0.0197822
0.041676797 -0.026068248 -0.054126322 0.045771383 0.06088101 0.028915301 0.03416322 -0.018143207
-0.050132938 0.022521429 0.04994356 -0.057167426 -0.023302093 -0.040493533 -0.030663222 -0.015229754
-0.033510372 -0.06247524 -0.010076463 0.048278533 -0.04898543 0.022004709 0.04415966 0.01067742
-0.014707148 0.013948306 -0.061966404 -0.03670787 0.042880833 -0.043831296 -0.051538922 -0.0050618052
0.030086204 0.011073597 -0.054815046 -0.0032963231 0.030629411 -0.03581001 -0.059706137 -0.05294718
-0.027731672 0.031520814 0.05729395 0.005920127 0.019186608 0.003659226 -0.046046555 -0.0108906925
0.043118507 0.058583602 -0.041876428 -0.053640112 -0.041913293 0.012299068 0.04350169 -0.0276184
-0.0051782206 0.0130462125 -0.017894015 0.046121538 -0.058424428 -0.009622052 0.049291708 0.01651901
0.027489513 -0.005752839 -0.01022663 -0.031383134 0.034404926 -0.04419031 -0.032462828 -0.028687641
0.027162552 -0.05732979 0.057044074 -0.053716063 0.013712682 -0.0068205893 0.04750091 0.055076152
0.039023243 0.03633146 0.046056934 0.036855645 0.026938148 -0.038724184 0.015737735 -0.037565857
-0.018557668 -0.04629761 -0.0046852976 0.010926746 -0.0143242255 0.022844918 -0.024805374 -0.016184524
-0.0055731013 0.057202205 0.053925976 -0.029656284 -0.010572091 0.062376767 -0.026391037 -0.042162344
0.020845369 -0.05976657 -0.053633295 -0.030470952 -0.0056799874 0.034604996 -0.016484104 -0.05410558
0.059001043 0.0016806945 0.012224667 0.04497312 -0.03833703 0.053902887 -0.01181148 0.026283965
0.027394041 -0.026589893 0.061396338 -0.02415055 0.05147949 0.027065568 -0.039304838 -0.023521245
-0.010612503 0.05663331 0.033694148 -0.053718306 0.01718466 -0.055038467 -0.051611826 -0.056903914
-0.04936851 -0.018262655 0.058232702 0.0090320185 -0.010875888 -0.062124245 -0.0564318 -0.021376796
0.022566333 -0.036662124 0.015616275 -0.02260553 0.025440954 0.008520603 0.043034762 0.06018795
-0.03635858 0.0118211135 0.044292495 -0.020507663 -0.031037897 -0.037699893 -0.018912815 0.039095625
0.0030487552 -0.052803434 -0.049568437 -0.018452942 0.0056939796 0.0395132 0.029241428 0.025178373
0.028572306 0.03629192 0.03708712 0.024245322 0.007934548 0.015580885 0.013535894 -0.05169539
-0.02655501 0.006830469 -0.01331944 0.029935569 0.01753594 0.050187342 -0.047818802 -0.058384605
-0.052972645 -0.054877862 0.05956594 0.0136163905 0.0185152 0.046693712 0.035063513 0.055370606
-0.0154585615 0.02850245 -0.03268283 0.008910626 0.05598724 -0.0073596016 0.05518093 0.019866265
-0.016041294 0.048231892 -0.004382588 -0.049099505 0.058626078 -0.04293693 0.0151284635 -0.056649923
-0.03083279 -0.026710592 0.06165444 -0.06188737 -0.029072918 -0.03350947 -0.01804562 0.037169687
-0.03787455 0.00039132684 0.019090362 -0.051864408 -0.026908435 0.024522625 -0.031876534 0.016968302
-0.04246983 0.0028924122 -0.004679911 -0.008886084 -0.014424078 0.04601746 0.047226436 -0.035545886
-0.023768738 0.026254691 0.050696366 -0.020103998 0.000157848 0.008671209 -0.05195482 -0.017533362
-0.004887551 -0.0018798709 0.039578296 -0.0061929524 -0.010836504 0.0071187243 0.01783847 0.046884462

fc2.bias f4 [256]
00000000: 1ccd db3c 003d 04bc 3855 49bc 0e81 15bd
00000010: c020 523d 002c 773d 8018 3e3a 903f f3bb
00000020: f0f1 0cbc 5848 633d 0050 4eba 0cbc 353d
00000030: 2a51 043d 98e4 62bd a497 143d f400 74bd
00000040: fc5b 3f3d 7cb9 813c d479 87bc a085 943b
00000050: 0063 09bd 50df 323c 38b0 a63c 3082 17bd
00000060: f8f9 e6bc 1012 f43b 42f6 593d 6c10 11bd
00000070: 1adb 58bd f45e 163d 98a7 de3c 5c6a d83c
00000080: d6d6 053d 1c52 013d 8660 25bd d085 f2bc
00000090: fcce fdbc 787b 90bc f0e9 56bc 460e 21bd
000000a0: ec13 91bc f835 90bc 00ed 653c f494 3f3d
000000b0: c2b7 7b3d ec47 703d e8b8 10bc dcee a4bc
000000c0: 5e6d 193d caa5 093d ee19 343d ec32 6e3d
000000d0: 2899 973c 16bb 73bd 3867 0b3d 564c 3dbd
000000e0: a041 283c 42d1 47bd 1469 c73c 468d 013d
000000f0: cc4e 05bd 5c4d 583d 9a72 6e3d ecf1 ff3c
00000100: 3eaf 61bd 1adc 3b3d 08e4 c13c d0c4 30bc
00000110: 9893 77bd 6c4c 07bd 0058 4039 4a16 523d
00000120: 1891 0abd f86e c03c 00b2 c73c 764a 2d3d
00000130: c040 15bb a6a6 513d 5c4b bd3c e87a 8bbc
00000140: ccf0 c7bc 10ac d5bc 0098 2239 fada 4dbd
00000150: 72a4 57bd a4bb e4bc f002 bd3b 8cb4 4ebd
00000160: 2438 eabc d0f7 ed3b 685f 57bc 1001 7dbc
00000170: f8c4 183d e04a fdbc 78d7 183d 207f 75bc
00000180: 7853 593c eeb8 58bd f8b2 86bc 30b9 2abd
00000190: a6ec 243d f204 4ebd e086 ca3b 5444 f0bc
000001a0: 40be b93b 1461 65bd 1c63 933c 52a2 54bd
000001b0: 6004 043c 80b8 103a ea14 123d 48b8 57bd
000001c0: 8cbc 163d a405 933c 0031 6d3d baab 30bd
000001d0: 4479 b63c 2c72 f3bc 5864 71bc cc0d 323d
000001e0: c8f0 efbc c0c6 f7bb 8017 76bb 3c80 b2bc
000001f0: 3051 c83c f05d 83bb 0080 b63b e01f 41bb
00000200: bee1 733d cc05 93bc 089c f33c a466 1ebd
00000210: f087 383d e4e7 f8bc e009 90bc f01c aebc
00000220: 8091 873a 006c b838 6876 e4bc f46f 713d
00000230: 20af 73bc 3c33 c3bc 7ef0 27bd a013 67bd
00000240: ac7e 893c b025 02bc 3cc0 c83c b871 0abd
00000250: e82c 0dbd 30b8 14bc 12d1 3a3d e0c1 473b
00000260: f03a a13c 3c53 393d b838 4ebc 3c3f 05bd
00000270: 7826 d93c 14d1 d33c 5c46 9e3c 2827 703c
00000280: e01e 8d3b 2e1a 0fbd fec6 7a3d 4855 083c
00000290: 8e0c 6bbd ac76 8f3c bccb 7bbd 3e70 533d
000002a0: b09d d53c 1009 213d c850 37bc d80d 7abc
000002b0: 1851 093d d8dd ddbc a83b 0c3d 40e5 e0bb
000002c0: 5056 99bc d691 233d 0a04 703d 0032 6c3c
000002d0: 0094 d6b8 3811 95bc 28e7 64bd 10e2 babb
000002e0: 523b 62bd d0f2 5cbd 6c06 eabc ae68 3f3d
000002f0: f4dd a03c 00b2 91bc 62b7 10bd c84e 77bd
00000300: 04ce 74bd 00dd 7fba f294 54bd a0e9 173d
00000310: e4cb 833c b89f 2bbd b8d9 d33c 26eb 0ebd
00000320: 243a bc3c 763d 563d 30d0 e3bc c863 5c3d
00000330: 40b7 4e3c 0c31 e33c a8e9 1fbd 404f fdba
00000340: f0df 5ebd 00fa 223d a0e4 12bc 4661 47bd
00000350: 9a68 033d 9e6f 24bd 1a8f 2c3d 1e96 463d
00000360: a0dd ba3c 0070 063c 6ae4 783d 3050 e83b
00000370: 6a59 503d 58c5 653d 208d b7bb 5a23 6e3d
00000380: ea1e 423d bc52 533d d03f 16bd c0f2 58bd
00000390: e843 ac3c d060 dbbb ca00 0c3d 004d fa39
000003a0: bc8a a8bc 8cbf b93c 285d ddbc ac76 8e3c
000003b0: fa93 6bbd 5cd8 46bd 50b0 f2bc 08b0 2bbd
000003c0: f8a4 33bd 2ae5 383d e01f 23bd 5c3b b93c
000003d0: b8fc 3f3c a09a cd3b 36ef 42bd d0b1 cd3b
000003e0: 58f9 4dbd 4050 2abc 5045 c53c d2ae 0e3d
000003f0: 489b 133d f2e8 493d 00f3 613c f8f1 02bc
0.026831202 -0.008071184 -0.012288384 -0.03650003 0.051300764 0.060344696 0.00072515756 -0.0074233487
-0.008602604 0.055488914 -0.00078701973 0.04436879 0.032303967 -0.055393785 0.03627743 -0.05957122
0.046718583 0.015835516 -0.016537584 0.004532531 -0.03354168 0.0109175 0.0203477 -0.03698939
-0.028195366 0.0074484423 0.053213365 -0.03541605 -0.052943327 0.036711648 0.027179524 0.026417904
0.032675587 0.031572446 -0.040375255 -0.029604822 -0.030982487 -0.017637 -0.0131172985 -0.039320253
-0.017709695 -0.01760386 0.014033556 0.046772912 0.061454542 0.05866234 -0.008833148 -0.020133428
0.037457816 0.033605374 0.04397004 0.05815403 0.018505648 -0.05950459 0.034033984 -0.046215378
0.0102695525 -0.04878355 0.024342097 0.03162887 -0.03254585 0.05280815 0.05821476 0.031243287
-0.055098765 0.045864202 0.023668304 -0.010789111 -0.06044349 -0.033031866 0.0001834333 0.051290788
-0.03382978 0.023490414 0.02437687 0.04230734 -0.002277419 0.05118432 0.023107223 -0.01702638
-0.024406813 -0.026083022 0.00015506148 -0.05025766 -0.05264706 -0.027921505 0.0057681724 -0.05046515
-0.028591223 0.0072622076 -0.013145305 -0.015442148 0.03729722 -0.030919492 0.037314862 -0.014983922
0.013264529 -0.052910738 -0.01644276 -0.041680515 0.040264748 -0.050297685 0.006180629 -0.029329456
0.0056684315 -0.056000784 0.017991595 -0.051912613 0.008057684 0.00055206567 0.035664476 -0.05266598
0.036800906 0.017947026 0.05790806 -0.04313252 0.02227462 -0.029717527 -0.0147333965 0.04347019
-0.029289618 -0.0075615346 -0.0037550628 -0.021789663 0.024452776 -0.004009001 0.005569458 -0.0029468462
0.059541456 -0.0179471 0.029737487 -0.038672104 0.045051515 -0.030384012 -0.017582834 -0.021254033
0.0010343045 8.79392e-05 -0.027888492 0.058944657 -0.014873296 -0.023828141 -0.041000836 -0.0564152
0.016784035 -0.007943556 0.024505727 -0.033799857 -0.034466654 -0.009077117 0.04560954 0.0030480549
0.019681424 0.045245394 -0.012586765 -0.032531008 0.026507601 0.025856532 0.01932066 0.014657773
0.004306659 -0.034937076 0.06122493 0.008321114 -0.05738502 0.017512642 -0.061473593 0.051620714
0.026076168 0.039315283 -0.011188693 -0.01526209 0.033524603 -0.027083322 0.03423658 -0.006863266
-0.018717915 0.039934002 0.058597602 0.014416218 -0.00010231882 -0.018196687 -0.05588451 -0.0057032183
-0.055232354 -0.0539425 -0.028567515 0.04673069 0.019637085 -0.017785072 -0.035331137 -0.060377866
-0.059766784 -0.00097604096 -0.051899858 0.037088037 0.016088434 -0.041900367 0.025860652 -0.034892224
0.022976942 0.052304707 -0.027809232 0.053806096 0.012616932 0.027733348 -0.03904119 -0.0019325987
-0.054412782 0.0397892 -0.008965641 -0.04867675 0.032082178 -0.04014551 0.04212866 0.048483007
0.022810757 0.008205414 0.060764708 0.007089637 0.050866522 0.056096405 -0.00560154 0.058139183
0.047392763 0.051592574 -0.03668195 -0.05296588 0.021028474 -0.0066948906 0.03418044 0.00047741085
-0.020573966 0.022674344 -0.02702196 0.017390572 -0.05751417 -0.04854618 -0.029625088 -0.041915923
-0.0438585 0.045140423 -0.03982532 0.022611313 0.011717968 0.0062745363 -0.04759141 0.0062773004
-0.05028662 -0.01039511 0.024080902 0.03483469 0.03603676 0.04929442 0.013790846 -0.00799226

fc3.weight f4 [42, 256]
00000000: 60ef 453c ae78 20bd f4f1 d4bc c856 2dbd
00000010: b68f 763d 0ee1 563d 78c4 64bd e846 46bc
00000020: e0b7 f0bb 84ec 52bd 7c42 89bc 6022 9d3c
00000030: c872 8bbc 20e5 5ebd 8842 0bbc 2489 1fbd
00000040: e876 f63c 84f8 c63c eee9 5bbd 7ec0 5d3d
00000050: c001 873a c01e 193d 26b9 103d 80f6 8ebc
00000060: 0043 5eba 703d 33bc 140d 51bd ec39 de3c
00000070: 4014 ac3b fa4d 263d 981c 46bc 808f 4e3a
00000080: 9a97 503d a8c7 573c 5087 efbb 801e 15ba
00000090: d091 8e3b 7ab1 5b3d 5c57 533d 203b d93c
000000a0: 0012 ea3b 7409 52bd 9a5d 243d 0010 bb3b
000000b0: 0079 7e3d 9e42 2d3d d807 eabc d4c8 fe3c
000000c0: f0a9 fe3b 0c83 4a3d 4801 093d 881e 253d
000000d0: 06ec 39bd 36b4 7dbd a0ca fe3b cc38 a63c
000000e0: 50f2 69bd 78f3 acbc 40e0 20bd 5e96 1f3d
000000f0: ac6d 06bd 4459 95bc a4b3 e6bc 00a7 7bbc
00000100: 3ebd 58bd a8d5 64bc 4080 73bb dc6f 713d
00000110: 3011 d83c 70be 473c b076 96bc c0b1 6abc
00000120: 284a 193d bcbc dabc de3b 01bd 489d 84bc
00000130: 5447 73bd 4e07 6fbd 6832 5cbc 30d1 1b3c
00000140: b8ed 00bc d634 6b3d e829 09bd dca4 a93c
00000150: 22e3 38bd d073 723c 085b f43c 10c1 5abc
00000160: 0062 69bd c0a0 50bd 3873 91bc b8a5 acbc
00000170: 1842 56bd 64ea 553d 706e 4d3c 8e47 3e3d
00000180: 8432 5cbd a0fc 513b 1801 d23c cc5e 19bd
00000190: a010 e63b c828 2cbc 4832 323d 5021 b53b
000001a0: eeef 7d3d 403c a53b 762e 3bbd b4f7 f03c
000001b0: 66b4 423d a8cf 0f3c e893 35bd 9c3e cf3c
000001c0: d487 913c 3423 f9bc d0db 883c b430 713d
000001d0: 744b e53c b686 1e3d 4eed 1c3d be38 26bd
000001e0: 7cdf 583d f610 2dbd 5cef 413d 009e f7ba
000001f0: 2081 343c 7a7b 613d 7eb2 063d 26be 6abd
00000200: a24e 32bd cc7f 22bd 58d9 2e3d 0479 bbbc
00000210: 48a7 983c fc5c 63bd a057 20bd 54ec 713d
00000220: d093 b83c 60a8 3b3b 3ed8 63bd c85b d0bc
00000230: 9e03 20bd 1ebd 43bd 5e64 313d 520d 08bd
00000240: 1830 9f3c 9c16 99bc 68eb 5fbc f43d 07bd
00000250: 84bb a43c 9860 2bbd 303c 20bc 98e5 47bc
00000260: ccd3 7f3d 04cb 74bd 00fe 313c bcbb 9a3c
00000270: 5084 0f3d 3a83 383d aee5 4a3d 0429 5abd
00000280: 76d1 603d d295 03bd d807 b53c 448c 6e3d
00000290: c036 51bd 3ef2 563d 5c11 f43c a8d9 5e3d
000002a0: 80cb 00bb d6c8 0abd d28a 0f3d 2033 1abb
000002b0: 867f 653d 08af 2c3d e893 1f3d b013 33bd
000002c0: 002a 93ba 9ce2 aebc 0a60 723d 0447 80bc
000002d0: 5493 66bd 9612 56bd a060 30bd c04d e83b
000002e0: 90ff a73c fe1c 16bd 20dd 84bc 50d5 afbc
000002f0: aaf2 773d f4ec 5b3d b896 eabc 80f4 413c
00000300: c897 10bc 400f 4f3b 6026 203d 5061 7b3c
00000310: 924b 1abd a6c0 1b3d 088d 5fbc 58b1 8ebc
00000320: 3004 cabc 80ec c03a bc6b 473d a092 ff3b
00000330: 605c 8e3b 444f e9bc 9cb2 e7bc 5a96 5c3d
00000340: 7448 37bd 0843 5dbc 704b d1bc d4d8 ce3c
00000350: a0e9 c83c 9c04 38bd 8863 743c 66c7 253d
00000360: d80d 05bc 400d c3ba ec04 9dbc 90b7 593d
00000370: e456 2bbd d0b6 143c b8cb 093d 94a2 27bd
00000380: 2461 25bd 8800 c53c aa61 41bd 8e8b 6f3d
00000390: 2c86 65bd e094 92bc c0ec 27bd d22d 293d
000003a0: 2019 56bb 848e f23c 0057 8fbc 689c 373d
000003b0: da02 643d 04af 4b3d f6e8 713d 4823 45bd
000003c0: 20fb a1bc 244f aabc e029 4bbb 520f 7fbd
000003d0: 0acf 5abd bc2b 1a3d 2a13 1dbd 44cd 533d
000003e0: 7853 333c e6cd 153d 1878 2dbd 98a4 33bc
000003f0: d41b 513d 50f2 9e3b 3c7e 0cbd f865 20bd
0.012080997 -0.03917759 -0.025994278 -0.04231909 0.060195647 0.052460723 -0.05585143 -0.012101866
-0.0073461384 -0.05149509 -0.016755335 0.01918143 -0.017022505 -0.05441773 -0.008499749 -0.038949147
0.030085996 0.024288423 -0.05368989 0.054138653 0.0010300204 0.03738284 0.03533282 -0.017451525
-0.00084786117 -0.010939941 -0.051037863 0.027127229 0.0052514374 0.040601708 -0.012091778 0.00078796595
0.05092583 0.01317016 -0.0073098317 -0.0005688444 0.0043508783 0.05363605 0.051596984 0.02651745
0.007143259 -0.051278546 0.040128328 0.0057086945 0.062127113 0.04229986 -0.028568193 0.031101622
0.007771723 0.049441382 0.033448488 0.04031232 -0.045391105 -0.06193944 0.0077756196 0.020290755
-0.057115853 -0.021112189 -0.03927636 0.03896176 -0.032819435 -0.018231042 -0.028161831 -0.01535964
-0.05291485 -0.013966955 -0.00371553 0.058944568 0.026375383 0.0121914 -0.018367141 -0.014324605
0.037424237 -0.026701324 -0.031551234 -0.016188279 -0.059394196 -0.058356576 -0.013439752 0.009510323
-0.007869177 0.057423435 -0.03348723 0.020708494 -0.045138486 0.01479812 0.029828563 -0.013351694
-0.056978226 -0.050934553 -0.017755136 -0.021075115 -0.052309126 0.052225485 0.012538537 0.04645496
-0.053759113 0.0032041445 0.025635287 -0.03744392 0.007021025 -0.01050777 0.043504983 0.005527653
0.061996393 0.0050425828 -0.045698605 0.029414989 0.047535323 0.008777536 -0.044330508 0.02529841
0.017764963 -0.030412294 0.016706377 0.058884338 0.02799008 0.03870269 0.03831225 -0.040581457
0.052947506 -0.042252503 0.04734741 -0.0018891692 0.011017114 0.055049397 0.032885067 -0.057310246
-0.04353202 -0.039672658 0.042687744 -0.022884853 0.018634453 -0.0555086 -0.039146066 0.05906327
0.02253142 0.0028634295 -0.055626146 -0.02543439 -0.03906595 -0.047787778 0.04330861 -0.03321583
0.019432113 -0.018687539 -0.013666965 -0.033018067 0.020108946 -0.041840166 -0.009779975 -0.0122007355
0.062457845 -0.059763923 0.010863781 0.018888347 0.035038292 0.045047022 0.049535446 -0.05326177
0.054887258 -0.0321253 0.022098467 0.058239236 -0.051077604 0.052477114 0.029793434 0.054406792
-0.0019652545 -0.03388294 0.0350445 -0.0023529008 0.05602982 0.04215911 0.038959414 -0.043719947
-0.0011227727 -0.02134829 0.05917362 -0.015658863 -0.056292847 -0.05226382 -0.0430609 0.0070893466
0.020507604 -0.036648743 -0.016218722 -0.02146402 0.060534157 0.053692773 -0.028636321 0.0118380785
-0.00882525 0.0031594783 0.039099097 0.015343025 -0.037669726 0.03802552 -0.013644464 -0.017418548
-0.0246602 0.001471892 0.048686728 0.0077994615 0.004344508 -0.02848018 -0.02828341 0.053854324
-0.04474683 -0.013504751 -0.025548667 0.025249876 0.024525464 -0.04492627 0.014916308 0.040473364
-0.008120976 -0.0014881268 -0.019167386 0.053153574 -0.041830912 0.009076789 0.033641547 -0.04092653
-0.040375844 0.024048105 -0.04721228 0.0584827 -0.05603616 -0.017893255 -0.040997267 0.041303463
-0.0032668784 0.029608972 -0.01749754 0.044826895 0.055666782 0.049727455 0.05906006 -0.04812935
-0.019773066 -0.02078969 -0.0031000301 -0.06227047 -0.053420104 0.037639365 -0.038348354 0.05170943
0.0109451935 0.036573313 -0.04235086 -0.010964535 0.05105193 0.0048506632 -0.034300074 -0.039159745

fc3.bias f4 [42]
00000000: bea4 7c3d 8433 8fbc d00f 6ebd 24fc 6abd
00000010: 7886 003c ae8a 16bd b8ed 22bd d075 efbc
00000020: a844 b5bc 280d 093d 0aa8 2d3d e0d6 0a3c
00000030: 3663 04bd 08bb 3dbd b447 94bc 9676 2cbd
00000040: 1c57 afbc 8499 35bd 5007 5fbd c028 5abb
00000050: b0ed bcbb dcc8 58bd c28a 183d de6a 0cbd
00000060: a09a c1bc 48ca a0bc 5ea7 6b3d 40ff 98ba
00000070: 007e 3d39 4870 d03c da1a 133d 8831 ebbc
00000080: 3ecb 173d 089e b13c e4e5 51bd 484b f6bc
00000090: d0ce 74bc 3236 7abd c676 393d 80fb 1dbd
000000a0: 0051 09bc e221 3a3d
0.061680548 -0.01748062 -0.05812055 -0.057369366 0.00784456 -0.03675335 -0.039777488 -0.029230982
-0.022127464 0.033459812 0.042396583 0.008474082 -0.032321177 -0.046320945 -0.018100597 -0.04210528
-0.021403842 -0.044335857 -0.054450333 -0.003328845 -0.0057656392 -0.05292593 0.037241705 -0.034281604
-0.023633301 -0.019627705 0.05753266 -0.001167275 0.00018071383 0.025444165 0.03591428 -0.028710142
0.03705906 0.0216818 -0.05124463 -0.030065194 -0.014941886 -0.06108684 0.045279287 -0.038569927
-0.008381128 0.04544247

fc1.weight f4 [256, 15]
00000000: e84b f7bc 3886 813d aef7 2a3e 2c74 8b3d
00000010: d492 243e b48f 53be 8037 2ebb 6e2b 1cbe
00000020: d42d 67bd 044c cc3d 0628 19be 4ced 0cbd
00000030: daa0 7e3e b4f1 c93d 301e fa3c 389f 5a3d
00000040: b4f5 a03d 7c0f b43d 171e 7abe 805d bc3c
00000050: 1413 c03d 16ed dabd 4ad1 533e 7e31 c8bd
00000060: 8643 1a3e 59d8 83be 2cd6 223e 6e09 f0bd
00000070: dab9 49be a050 cd3c aaed babd 001f cabc
00000080: 64d3 0c3e 40e4 793d 7c95 443e fc11 edbd
00000090: d0af 9e3c 004f d4ba 3214 7b3e b485 073e
000000a0: 60f3 3f3d ee7c 513e 9732 6abe 82a9 27be
000000b0: e2dd 33be 6ec2 7f3e 1043 0d3e 70e8 003d
000000c0: b8ca 693e a482 4c3e 0c1c 373e 32e1 66be
000000d0: 283c 093e 10d0 a33c 8876 143d f25a 60be
000000e0: 44a6 983d 2ee4 023e 98ff 44be 5038 57bc
000000f0: 38e8 7d3d 83d8 43be 90b5 c3bc 2068 e1bd
00000100: 6a04 1d3e 082d 4ebe f0f4 60bd 17b1 1dbe
00000110: 6c37 abbd 1e88 d3bd 8025 363b 722e 3d3e
00000120: 2e95 9fbd 2423 e23d 60e4 3ebe 1027 0f3d
00000130: f071 433e 46a7 81be 50c1 49be d036 423e
00000140: e508 73be 9200 0c3e cd13 44be 842c f03d
00000150: e00d f9bd 849c 73bd 505a c93c 1c3a e63d
00000160: 00e4 28ba 7676 2b3e 89c3 803e 1cb9 473e
00000170: 604c 723e 78ab f03d d408 033e a2e5 073e
00000180: c062 da3c 70fc b73d b46f 483e 8633 49be
00000190: 784b c9bc dea3 443e 6072 263d 2666 68be
000001a0: eae3 14be da21 acbd 802f 913c 10f6 853c
000001b0: 188d a5bc aed4 7fbe 5a8d 80bd eced cb3d
000001c0: 50c8 5f3d 3e8a f9bd 1088 be3d ecf0 27be
000001d0: d836 abbd c67d 7c3e 3a3c 17be 4204 243e
000001e0: c08a dd3c dbbf 08be fc54 abbd 2c61 9fbd
000001f0: 8050 babd 0aef 3abe 5846 99bc 4072 4fbe
00000200: 86cd 27be 1e05 4e3e 98aa 303e 2d57 813e
00000210: 549f 133e 7550 71be 4b24 7cbe 2083 eb3d
00000220: 80fc 76be 80f6 223c 54da 2c3e f284 40be
00000230: 50b2 bc3c 4f64 6cbe 20cf fb3d 8046 e6bd
00000240: d216 653e 8409 853d a1eb 59be 685b 0f3d
00000250: e8fe 283d 3250 1a3e 5c1c 5f3e b073 76bc
00000260: ba4c 88bd b0dc ef3c 326f 133e da06 58be
00000270: 0a6b 0bbe b844 833d c2f7 b1bd 4066 b9bc
00000280: be81 2c3e 40f0 71be 8247 31be c0f8 fcbc
00000290: 7f41 803e 46af 36be 10e5 e83c 484c c73d
000002a0: b093 3fbc faec 31be 783f 863d 9ebb 08be
000002b0: 946f f0bd 3ed5 193e a6ff 6b3e f888 103e
000002c0: f0f5 f53d 506d 13bc 00f6 193c b00f d23c
000002d0: e0fa 77bc 4870 203d 2e7c c0bd d6cf 54be
000002e0: de01 17be a667 153e fc4d 14be 1a98 afbd
000002f0: 4224 103e d0e4 583d 4007 023c c629 c2bd
00000300: d8cd bcbd a875 60be e610 ccbd 5a6a 793e
00000310: a44a eb3d 80ba e43c 941a de3d 2912 34be
00000320: aa08 1c3e 36e7 b0bd 4cb4 bc3d 3848 9d3d
00000330: 474f 3bbe ae86 7d3e 961d 85bd 6820 1cbe
00000340: 9eab 523e 2470 373e 26e8 e6bd f8d3 9b3d
00000350: dcc5 2fbe 90f0 5e3d f340 62be ae5c 1bbe
00000360: bcde 2abd 58f1 c6bc ac12 fa3d 9045 933d
00000370: 24b9 e9bd 5a0c 30be 8d20 7abe 1bfe 36be
00000380: d48f 0b3e 6879 0c3e 4c06 f63d 1a20 623e
00000390: 8c68 debd 2000 4b3d 7033 38bd 54a9 283e
000003a0: 721e 6d3e c0f3 74bc 9bc3 66be ca59 7b3e
000003b0: 1505 06be eb42 00be f881 3abe bed7 0bbe
000003c0: 18a8 ca3d b8b4 a3bc 9a5b 6a3e 3ab0 98bd
000003d0: 2ed8 47be 1007 033e 689e 69be 88d0 2d3d
000003e0: 50ca 1f3d 88e2 4b3e a4e4 b73d 7ec5 c5bd
000003f0: 9635 73be a092 a2bc bc55 45bd 32e6 7bbe
-0.030187562 0.06324428 0.16696045 0.068092674 0.16071635 -0.20660287 -0.0026583374 -0.15250942
-0.05644019 0.09975436 -0.14956674 -0.03440599 0.24866048 0.09860554 0.030531973 0.0533745
0.07859364 0.08792016 -0.24425541 0.022993803 0.09378639 -0.10689752 0.20685306 -0.09775065
0.1506482 -0.25750998 0.15902013 -0.117205486 -0.19699803 0.025062859 -0.09127362 -0.024672985
0.13752514 0.06100869 0.19197649 -0.11575696 0.019370943 -0.001619786 0.24519423 0.13234597
0.04686296 0.20457813 -0.22870861 -0.16373256 -0.1756511 0.24976513 0.13795114 0.03147167
0.22831237 0.1997171 0.17881793 -0.22546843 0.13401854 0.019996673 0.036245853 -0.21909693
0.07453588 0.12782356 -0.19238126 -0.013135985 0.06198904 -0.19125561 -0.023890287 -0.110061884
0.15333715 -0.20134366 -0.05492109 -0.15399586 -0.0836018 -0.10328697 0.0027793348 0.18474749
-0.07792126 0.11041859 -0.18641806 0.034949362 0.19086432 -0.25322932 -0.19702649 0.18966222
-0.23733862 0.13672093 -0.19148178 0.11727241 -0.121608496 -0.059475437 0.024579197 0.11241552
-0.0006442666 0.16744408 0.2514918 0.19504207 0.23661947 0.11751455 0.12796336 0.13271192
0.026658416 0.089836955 0.19573861 -0.19648561 -0.02457212 0.19203135 0.04063642 -0.22695217
-0.14540067 -0.08404894 0.017722845 0.016352683 -0.02020888 -0.24983475 -0.06276961 0.09957489
0.054634392 -0.12184571 0.093032956 -0.16400498 -0.0836007 0.24657354 -0.14769068 0.16017249
0.0270437 -0.13354437 -0.08365819 -0.07782206 -0.090973854 -0.18255249 -0.0187103 -0.20258427
-0.16386995 0.2011914 0.17252576 0.25261822 0.14416248 -0.23565848 -0.2462322 0.114996195
-0.24119759 0.0099464655 0.1688016 -0.18800715 0.023034245 -0.2308514 0.12295365 -0.112439156
0.22371987 0.064959556 -0.21281292 0.03499928 0.041258723 0.15069655 0.21788162 -0.0150422305
-0.066552594 0.029280037 0.14397886 -0.21096364 -0.13615051 0.064095914 -0.08689834 -0.022631764
0.16846368 -0.23626804 -0.17312434 -0.030880332 0.2504997 -0.17840299 0.028429538 0.09731346
-0.011692926 -0.17375556 0.065550745 -0.1335282 -0.11740032 0.15022752 0.23046741 0.1411475
0.120097995 -0.00899823 0.00939703 0.025642246 -0.015135497 0.03916958 -0.093986854 -0.20782408
-0.14746806 0.1459032 -0.14482874 -0.08573933 0.14076331 0.052952588 0.007936299 -0.09480624
-0.09218949 -0.21919882 -0.099641606 0.24356976 0.11488846 0.027920961 0.10844913 -0.17585053
0.1523768 -0.0863785 0.092140764 0.0767979 -0.1829196 0.24758407 -0.06499784 -0.15246737
0.2057328 0.17913872 -0.112747476 0.07608789 -0.17165321 0.054428637 -0.22095089 -0.15172073
-0.041716322 -0.024285004 0.12210593 0.07191002 -0.11412266 -0.17192212 -0.2442648 -0.17870371
0.13629085 0.13718188 0.1201292 0.22082558 -0.108597845 0.049560666 -0.04497093 0.16470844
0.23156145 -0.014950693 -0.22535555 0.2454597 -0.13087876 -0.12525527 -0.18213642 -0.13656518
0.098953426 -0.019983634 0.22886506 -0.074554875 -0.1951606 0.12795663 -0.22814333 0.0424352
0.0390113 0.19910634 0.089791566 -0.09656809 -0.2375091 -0.019845307 -0.048177466 -0.24599531

fc1.bias f4 [256]
00000000: b0f9 553d 58f8 403d ba2f 24be 3d9a 66be
00000010: c258 75be dc5f 933d f089 ba3c 76c6 35be
00000020: 1163 7abe 2021 14bc 74bf b93d 2061 623c
00000030: 4835 363d c0bc d43c 285b 3e3d e481 d4bd
00000040: 50c4 f83d 8e31 0ebe 24dc 3bbe 5c39 22bd
00000050: b012 493d b061 e8bd 7448 9dbd a48e e83d
00000060: eaca 403e 0eda 04be 401d 6c3e 80e0 cfbd
00000070: 0a7d 06be 6cde 6bbd a415 8b3d c4a1 aa3d
00000080: 6e45 89bd 807c 1abb 18c5 1bbe 6eb1 adbd
00000090: e48f 94bd e094 393e 340a 053e 24e6 f23d
000000a0: 3ce8 14be be74 293e 96b5 67be 8883 b93d
000000b0: e035 0b3e 8089 383c a79d 0cbe b8bf 2cbd
000000c0: c43a 11be 248a ef3d c405 523e a074 8f3d
000000d0: 4889 42be ecda a9bd 38cf 0cbd 3101 00be
000000e0: e0b2 603c 3808 b73d d8b9 8b3d 5a31 28be
000000f0: aab8 b1bd 20fb 723d 2086 5e3e 3000 4abc
00000100: 3ce3 69be 7e4d b1bd c08c d33c dac9 c2bd
00000110: 2c9b a43d 206b de3c 6cdd 693e 68ec babd
00000120: 3257 7dbe 37d6 0abe cc2a 843d e009 fc3d
00000130: 90a8 233d d81a ec3d 9333 0ebe 1e79 1b3e
00000140: ae34 d1bd db8e 5bbe 8046 aabc eb25 833e
00000150: d05d 123e 7011 d13d 96d0 56be cf77 66be
00000160: 40b1 593c 9646 03be 8e3e 133e 20e4 0c3d
00000170: 66cf 37be 8004 253e 406d 60bd d620 0fbe
00000180: 7e31 e6bd 34c1 1d3e 608a bd3c 47d6 75be
00000190: 6faa 51be 2019 5fbe d6af 47be 3035 36bc
000001a0: 003c 6f3c fa0d 33be c082 123e 7e16 3f3e
000001b0: 34ee 323e 067f 28be e062 033c 6fce 11be
000001c0: 403c e93d 74d1 30bd 4068 723e b036 943c
000001d0: 9010 b63c 722c 1cbe 1036 0cbd 803c 533c
000001e0: 3862 40be ce81 1ebe 9c57 5a3e 8823 653e
000001f0: 4013 353e 0231 65be ee07 51be 2aa4 5ebe
00000200: 6494 66be 94ab 70bd 88c0 c3bc 1022 1f3d
00000210: d2f1 18be e4d2 69bd c08e 9ebb b8f2 cebd
00000220: 9eaf 4abe e8da 12be 506c 4dbe 2c23 67be
00000230: dc14 723e c0c8 233d 2654 6bbe f82f 713e
00000240: bed1 23be 0e81 083e 08cc 9c3d e89a 67be
00000250: 5955 32be 181f 80be f5fb 81be 48f7 263e
00000260: f266 6a3e 2203 103e 6e77 10be 5e2b 243e
00000270: b878 853d c01e 8d3d aebb 9ebd 0e86 52be
00000280: 2424 393e 0406 593e a0bc a23d 7ac3 783e
00000290: 6814 1b3d 2841 90bd 6c3a 643e 58bf f73d
000002a0: 3d73 7abe 0800 37be f06c 6b3e 08ea a6bd
000002b0: 3ceb dfbd 9437 393e d8a9 ba3d 48df bb3d
000002c0: b4ec c33d 124a dbbd 4bec 37be 7ee0 023e
000002d0: 36c7 7b3e 712b 813e 783d 463e 6a84 313e
000002e0: 16d6 84bd 88d6 55be d048 5a3e 94e9 09be
000002f0: ee5a 5d3e 10a5 de3d 8315 76be 7012 0fbe
00000300: 286b 4a3d 59de 59be 1c96 573e a0a5 ae3c
00000310: a0be ab3d 68a8 37be 8029 063c 1eb0 09be
00000320: 1ee9 47be 62e4 19be 58c3 2bbe 4cd8 7abe
00000330: 5b0e 03be 421d 26be feae 3f3e 30bd 40bc
00000340: 78a0 aa3d a64f 77be 1461 a93d 0099 103d
00000350: ec84 17be d42c 073e 8830 1c3e 10ce 53bd
00000360: e45a 543e ce0c 5bbe 4002 a4bc 20fc fd3d
00000370: c032 72bd 6a7b 473e b574 1ebe bbd9 4fbe
00000380: 7ed7 c7bd 1cf2 593e 1270 49be 7e39 afbd
00000390: d0d4 573d 0409 e43d a446 9cbd cc69 b43d
000003a0: 465b 27be fc4f 04bd e02e 203d 5bb0 81be
000003b0: eedb 4d3e 7d34 7ebe 002a d03a d8f0 2d3e
000003c0: b50b 833e d1c4 83be 9091 ad3d e0c4 e4bc
000003d0: be3f 83bd 18c6 903d 803c 253e 3038 5ebc
000003e0: 8885 cfbd 18c7 023d d28b b7bd 7888 b53d
000003f0: a942 47be 40a7 1cbd e0f4 aebd b050 e63d
0.052240074 0.04711184 -0.16033831 -0.22519775 -0.2395964 0.07196018 0.022770852 -0.17751488
-0.24451853 -0.009041101 0.0906972 0.013817102 0.044484407 0.02596891 0.046473652 -0.10376337
0.12146819 -0.13886091 -0.18345696 -0.039605483 0.049090087 -0.113467574 -0.07679835 0.113553315
0.18827406 -0.12973806 0.23058033 -0.10150242 -0.13133636 -0.057585165 0.06791237 0.083316356
-0.06702696 -0.0023572743 -0.15211904 -0.08481108 -0.072540075 0.18123198 0.12992173 0.11860302
-0.14541715 0.1654844 -0.22627863 0.09058291 0.1359477 0.011263251 -0.13732015 -0.042175025
-0.14182574 0.1169627 0.20510012 0.07004666 -0.18997681 -0.08293709 -0.034377307 -0.12500454
0.013714522 0.089371145 0.06822556 -0.16425076 -0.086778 0.059321523 0.21730852 -0.012329146
-0.2284059 -0.086573586 0.02582395 -0.095111564 0.08037409 0.02715069 0.22838372 -0.09127122
-0.24740294 -0.13558279 0.06453475 0.12306571 0.039955676 0.115285575 -0.13886862 0.15182921
-0.10215126 -0.21441214 -0.02078557 0.25614867 0.14293599 0.10208404 -0.20978007 -0.22506641
0.013286889 -0.12819895 0.14379331 0.034397244 -0.1795021 0.16114998 -0.05479169 -0.1397737
-0.11239909 0.15405732 0.023137271 -0.24007522 -0.20475172 -0.21786928 -0.1950067 -0.011121079
0.014601707 -0.174858 0.1430769 0.18660924 0.1747368 -0.16454706 0.008019179 -0.14238904
0.11388445 -0.0431685 0.2367258 0.018092483 0.022224694 -0.1525133 -0.034231246 0.012892842
-0.18787467 -0.15479204 0.21322483 0.22376835 0.17683125 -0.22381976 -0.20413181 -0.21742311
-0.22517544 -0.05875738 -0.023895517 0.038850844 -0.14935997 -0.057085887 -0.0048387945 -0.10104889
-0.19793555 -0.14341319 -0.20060849 -0.22572011 0.2364077 0.039986372 -0.22981319 0.23553455
-0.15997979 0.1333048 0.076561034 -0.22617686 -0.1741537 -0.25023723 -0.2538754 0.16305268
0.22890833 0.14063695 -0.14108059 0.16032168 0.06517166 0.06890631 -0.07750641 -0.2055895
0.18080193 0.21193701 0.079461336 0.24293318 0.037861258 -0.070436776 0.22287911 0.12097043
-0.24458022 -0.17871106 0.22990775 -0.08150107 -0.10933539 0.18087608 0.091144264 0.09173447
0.09566632 -0.10707487 -0.17961232 0.1278095 0.24587712 0.25228456 0.19359386 0.17335668
-0.06486146 -0.20882618 0.21316838 -0.13468009 0.21616718 0.10871327 -0.24031644 -0.13971877
0.0494186 -0.21276225 0.21053356 0.02131921 0.08385968 -0.17935336 0.008188605 -0.1344609
-0.19522521 -0.15028527 -0.16773736 -0.24496573 -0.12798445 -0.16222098 0.18719098 -0.011763856
0.08331388 -0.24151477 0.08270469 0.035302162 -0.147968 0.13200694 0.15252888 -0.05171019
0.20737797 -0.21391603 -0.020020604 0.12401605 -0.05913043 0.19480672 -0.15474208 -0.20297901
-0.09757899 0.21283764 -0.19671658 -0.08555888 0.05269319 0.11134532 -0.07630661 0.08809242
-0.16343412 -0.03230284 0.039107203 -0.2532986 0.20103428 -0.2482471 0.0015881658 0.16986406
0.2559487 -0.25736097 0.084750295 -0.027925909 -0.06408642 0.070690334 0.1613636 -0.013563201
-0.10132891 0.03192815 -0.089622155 0.0886392 -0.19459023 -0.03824544 -0.085428 0.11245859
